Namespace(batch_size=256, data_base='/data/zhangcl/ImageNet', dist_backend='gloo', dist_url='tcp://224.66.41.62:23456', epochs=30, evaluate=False, gpu_id='0,1,2,3', load_from_lmdb=True, lr=0.001, momentum=0.9, pretrained=False, print_freq=10, resume='', start_epoch=0, weight_decay=0.0001, workers=8, world_size=1)
ResNet_test(
  (conv1): Conv2d(3, 64, kernel_size=(7, 7), stride=(2, 2), padding=(3, 3), bias=False)
  (bn1): BatchNorm2d(64, eps=1e-05, momentum=0.1, affine=True)
  (relu): ReLU(inplace)
  (maxpool): MaxPool2d(kernel_size=(3, 3), stride=(2, 2), padding=(1, 1), dilation=(1, 1), ceil_mode=False)
  (layer1): Sequential(
    (0): Bottleneck(
      (conv1): Conv2d(64, 32, kernel_size=(1, 1), stride=(1, 1), bias=False)
      (bn1): BatchNorm2d(32, eps=1e-05, momentum=0.1, affine=True)
      (conv2): Conv2d(32, 32, kernel_size=(3, 3), stride=(1, 1), padding=(1, 1), bias=False)
      (bn2): BatchNorm2d(32, eps=1e-05, momentum=0.1, affine=True)
      (conv3): Conv2d(32, 256, kernel_size=(1, 1), stride=(1, 1), bias=False)
      (bn3): BatchNorm2d(256, eps=1e-05, momentum=0.1, affine=True)
      (relu): ReLU(inplace)
      (downsample): Sequential(
        (0): Conv2d(64, 256, kernel_size=(1, 1), stride=(1, 1), bias=False)
        (1): BatchNorm2d(256, eps=1e-05, momentum=0.1, affine=True)
      )
    )
    (1): Bottleneck(
      (conv1): Conv2d(256, 32, kernel_size=(1, 1), stride=(1, 1), bias=False)
      (bn1): BatchNorm2d(32, eps=1e-05, momentum=0.1, affine=True)
      (conv2): Conv2d(32, 32, kernel_size=(3, 3), stride=(1, 1), padding=(1, 1), bias=False)
      (bn2): BatchNorm2d(32, eps=1e-05, momentum=0.1, affine=True)
      (conv3): Conv2d(32, 256, kernel_size=(1, 1), stride=(1, 1), bias=False)
      (bn3): BatchNorm2d(256, eps=1e-05, momentum=0.1, affine=True)
      (relu): ReLU(inplace)
    )
    (2): Bottleneck(
      (conv1): Conv2d(256, 32, kernel_size=(1, 1), stride=(1, 1), bias=False)
      (bn1): BatchNorm2d(32, eps=1e-05, momentum=0.1, affine=True)
      (conv2): Conv2d(32, 32, kernel_size=(3, 3), stride=(1, 1), padding=(1, 1), bias=False)
      (bn2): BatchNorm2d(32, eps=1e-05, momentum=0.1, affine=True)
      (conv3): Conv2d(32, 256, kernel_size=(1, 1), stride=(1, 1), bias=False)
      (bn3): BatchNorm2d(256, eps=1e-05, momentum=0.1, affine=True)
      (relu): ReLU(inplace)
    )
  )
  (layer2): Sequential(
    (0): Bottleneck(
      (conv1): Conv2d(256, 65, kernel_size=(1, 1), stride=(1, 1), bias=False)
      (bn1): BatchNorm2d(65, eps=1e-05, momentum=0.1, affine=True)
      (conv2): Conv2d(65, 66, kernel_size=(3, 3), stride=(2, 2), padding=(1, 1), bias=False)
      (bn2): BatchNorm2d(66, eps=1e-05, momentum=0.1, affine=True)
      (conv3): Conv2d(66, 512, kernel_size=(1, 1), stride=(1, 1), bias=False)
      (bn3): BatchNorm2d(512, eps=1e-05, momentum=0.1, affine=True)
      (relu): ReLU(inplace)
      (downsample): Sequential(
        (0): Conv2d(256, 512, kernel_size=(1, 1), stride=(2, 2), bias=False)
        (1): BatchNorm2d(512, eps=1e-05, momentum=0.1, affine=True)
      )
    )
    (1): Bottleneck(
      (conv1): Conv2d(512, 65, kernel_size=(1, 1), stride=(1, 1), bias=False)
      (bn1): BatchNorm2d(65, eps=1e-05, momentum=0.1, affine=True)
      (conv2): Conv2d(65, 65, kernel_size=(3, 3), stride=(1, 1), padding=(1, 1), bias=False)
      (bn2): BatchNorm2d(65, eps=1e-05, momentum=0.1, affine=True)
      (conv3): Conv2d(65, 512, kernel_size=(1, 1), stride=(1, 1), bias=False)
      (bn3): BatchNorm2d(512, eps=1e-05, momentum=0.1, affine=True)
      (relu): ReLU(inplace)
    )
    (2): Bottleneck(
      (conv1): Conv2d(512, 65, kernel_size=(1, 1), stride=(1, 1), bias=False)
      (bn1): BatchNorm2d(65, eps=1e-05, momentum=0.1, affine=True)
      (conv2): Conv2d(65, 65, kernel_size=(3, 3), stride=(1, 1), padding=(1, 1), bias=False)
      (bn2): BatchNorm2d(65, eps=1e-05, momentum=0.1, affine=True)
      (conv3): Conv2d(65, 512, kernel_size=(1, 1), stride=(1, 1), bias=False)
      (bn3): BatchNorm2d(512, eps=1e-05, momentum=0.1, affine=True)
      (relu): ReLU(inplace)
    )
    (3): Bottleneck(
      (conv1): Conv2d(512, 65, kernel_size=(1, 1), stride=(1, 1), bias=False)
      (bn1): BatchNorm2d(65, eps=1e-05, momentum=0.1, affine=True)
      (conv2): Conv2d(65, 66, kernel_size=(3, 3), stride=(1, 1), padding=(1, 1), bias=False)
      (bn2): BatchNorm2d(66, eps=1e-05, momentum=0.1, affine=True)
      (conv3): Conv2d(66, 512, kernel_size=(1, 1), stride=(1, 1), bias=False)
      (bn3): BatchNorm2d(512, eps=1e-05, momentum=0.1, affine=True)
      (relu): ReLU(inplace)
    )
  )
  (layer3): Sequential(
    (0): Bottleneck(
      (conv1): Conv2d(512, 133, kernel_size=(1, 1), stride=(1, 1), bias=False)
      (bn1): BatchNorm2d(133, eps=1e-05, momentum=0.1, affine=True)
      (conv2): Conv2d(133, 133, kernel_size=(3, 3), stride=(2, 2), padding=(1, 1), bias=False)
      (bn2): BatchNorm2d(133, eps=1e-05, momentum=0.1, affine=True)
      (conv3): Conv2d(133, 1024, kernel_size=(1, 1), stride=(1, 1), bias=False)
      (bn3): BatchNorm2d(1024, eps=1e-05, momentum=0.1, affine=True)
      (relu): ReLU(inplace)
      (downsample): Sequential(
        (0): Conv2d(512, 1024, kernel_size=(1, 1), stride=(2, 2), bias=False)
        (1): BatchNorm2d(1024, eps=1e-05, momentum=0.1, affine=True)
      )
    )
    (1): Bottleneck(
      (conv1): Conv2d(1024, 131, kernel_size=(1, 1), stride=(1, 1), bias=False)
      (bn1): BatchNorm2d(131, eps=1e-05, momentum=0.1, affine=True)
      (conv2): Conv2d(131, 132, kernel_size=(3, 3), stride=(1, 1), padding=(1, 1), bias=False)
      (bn2): BatchNorm2d(132, eps=1e-05, momentum=0.1, affine=True)
      (conv3): Conv2d(132, 1024, kernel_size=(1, 1), stride=(1, 1), bias=False)
      (bn3): BatchNorm2d(1024, eps=1e-05, momentum=0.1, affine=True)
      (relu): ReLU(inplace)
    )
    (2): Bottleneck(
      (conv1): Conv2d(1024, 130, kernel_size=(1, 1), stride=(1, 1), bias=False)
      (bn1): BatchNorm2d(130, eps=1e-05, momentum=0.1, affine=True)
      (conv2): Conv2d(130, 131, kernel_size=(3, 3), stride=(1, 1), padding=(1, 1), bias=False)
      (bn2): BatchNorm2d(131, eps=1e-05, momentum=0.1, affine=True)
      (conv3): Conv2d(131, 1024, kernel_size=(1, 1), stride=(1, 1), bias=False)
      (bn3): BatchNorm2d(1024, eps=1e-05, momentum=0.1, affine=True)
      (relu): ReLU(inplace)
    )
    (3): Bottleneck(
      (conv1): Conv2d(1024, 131, kernel_size=(1, 1), stride=(1, 1), bias=False)
      (bn1): BatchNorm2d(131, eps=1e-05, momentum=0.1, affine=True)
      (conv2): Conv2d(131, 132, kernel_size=(3, 3), stride=(1, 1), padding=(1, 1), bias=False)
      (bn2): BatchNorm2d(132, eps=1e-05, momentum=0.1, affine=True)
      (conv3): Conv2d(132, 1024, kernel_size=(1, 1), stride=(1, 1), bias=False)
      (bn3): BatchNorm2d(1024, eps=1e-05, momentum=0.1, affine=True)
      (relu): ReLU(inplace)
    )
    (4): Bottleneck(
      (conv1): Conv2d(1024, 131, kernel_size=(1, 1), stride=(1, 1), bias=False)
      (bn1): BatchNorm2d(131, eps=1e-05, momentum=0.1, affine=True)
      (conv2): Conv2d(131, 131, kernel_size=(3, 3), stride=(1, 1), padding=(1, 1), bias=False)
      (bn2): BatchNorm2d(131, eps=1e-05, momentum=0.1, affine=True)
      (conv3): Conv2d(131, 1024, kernel_size=(1, 1), stride=(1, 1), bias=False)
      (bn3): BatchNorm2d(1024, eps=1e-05, momentum=0.1, affine=True)
      (relu): ReLU(inplace)
    )
    (5): Bottleneck(
      (conv1): Conv2d(1024, 131, kernel_size=(1, 1), stride=(1, 1), bias=False)
      (bn1): BatchNorm2d(131, eps=1e-05, momentum=0.1, affine=True)
      (conv2): Conv2d(131, 131, kernel_size=(3, 3), stride=(1, 1), padding=(1, 1), bias=False)
      (bn2): BatchNorm2d(131, eps=1e-05, momentum=0.1, affine=True)
      (conv3): Conv2d(131, 1024, kernel_size=(1, 1), stride=(1, 1), bias=False)
      (bn3): BatchNorm2d(1024, eps=1e-05, momentum=0.1, affine=True)
      (relu): ReLU(inplace)
    )
  )
  (layer4): Sequential(
    (0): Bottleneck(
      (conv1): Conv2d(1024, 272, kernel_size=(1, 1), stride=(1, 1), bias=False)
      (bn1): BatchNorm2d(272, eps=1e-05, momentum=0.1, affine=True)
      (conv2): Conv2d(272, 269, kernel_size=(3, 3), stride=(2, 2), padding=(1, 1), bias=False)
      (bn2): BatchNorm2d(269, eps=1e-05, momentum=0.1, affine=True)
      (conv3): Conv2d(269, 2048, kernel_size=(1, 1), stride=(1, 1), bias=False)
      (bn3): BatchNorm2d(2048, eps=1e-05, momentum=0.1, affine=True)
      (relu): ReLU(inplace)
      (downsample): Sequential(
        (0): Conv2d(1024, 2048, kernel_size=(1, 1), stride=(2, 2), bias=False)
        (1): BatchNorm2d(2048, eps=1e-05, momentum=0.1, affine=True)
      )
    )
    (1): Bottleneck(
      (conv1): Conv2d(2048, 271, kernel_size=(1, 1), stride=(1, 1), bias=False)
      (bn1): BatchNorm2d(271, eps=1e-05, momentum=0.1, affine=True)
      (conv2): Conv2d(271, 270, kernel_size=(3, 3), stride=(1, 1), padding=(1, 1), bias=False)
      (bn2): BatchNorm2d(270, eps=1e-05, momentum=0.1, affine=True)
      (conv3): Conv2d(270, 2048, kernel_size=(1, 1), stride=(1, 1), bias=False)
      (bn3): BatchNorm2d(2048, eps=1e-05, momentum=0.1, affine=True)
      (relu): ReLU(inplace)
    )
    (2): Bottleneck(
      (conv1): Conv2d(2048, 512, kernel_size=(1, 1), stride=(1, 1), bias=False)
      (bn1): BatchNorm2d(512, eps=1e-05, momentum=0.1, affine=True)
      (conv2): Conv2d(512, 512, kernel_size=(3, 3), stride=(1, 1), padding=(1, 1), bias=False)
      (bn2): BatchNorm2d(512, eps=1e-05, momentum=0.1, affine=True)
      (conv3): Conv2d(512, 2048, kernel_size=(1, 1), stride=(1, 1), bias=False)
      (bn3): BatchNorm2d(2048, eps=1e-05, momentum=0.1, affine=True)
      (relu): ReLU(inplace)
    )
  )
  (avgpool): AvgPool2d(kernel_size=7, stride=1, padding=0, ceil_mode=False, count_include_pad=True)
  (fc): Linear(in_features=2048, out_features=1000, bias=True)
)
train_loader_success!
| Learning Rate = 0.001000
Epoch: [0][0/5005]	Time 30.525 (30.525)	Data 5.304 (5.304)	Loss 0.7189 (0.7189)	Prec@1 83.984 (83.984)	Prec@5 93.750 (93.750)
Epoch: [0][10/5005]	Time 0.495 (3.251)	Data 0.007 (0.484)	Loss 0.5998 (0.7094)	Prec@1 85.547 (83.239)	Prec@5 97.656 (95.810)
Epoch: [0][20/5005]	Time 0.492 (1.941)	Data 0.001 (0.254)	Loss 0.6545 (0.7287)	Prec@1 82.422 (82.087)	Prec@5 97.656 (95.573)
…
