Namespace(alpha_range=100, batch_size=256, channel_index_range=20, compression_rate=0.4, data_base='/data/zhangcl/ImageNet', ft_model_path='/home/luojh2/.torch/models/vgg16-397923af.pth', gpu_id='4,5,6,7', layer_id=2, lr=0.001, lr_decay_epoch=10, num_epochs=3, print_freq=20, start_epoch=0, weight_decay=0.0005)

[Phase 1] : Data Preperation
data_loader_success!

[Phase 2] : Model setup
NetworkNew(
  (feature_1): Sequential(
    (conv1_1): Conv2d(3, 27, kernel_size=(3, 3), stride=(1, 1), padding=(1, 1))
    (relu1_1): ReLU(inplace)
    (conv1_2): Conv2d(27, 28, kernel_size=(3, 3), stride=(1, 1), padding=(1, 1))
    (relu1_2): ReLU(inplace)
    (pool1): MaxPool2d(kernel_size=(2, 2), stride=(2, 2), dilation=(1, 1), ceil_mode=False)
    (conv2_1): Conv2d(28, 128, kernel_size=(3, 3), stride=(1, 1), padding=(1, 1))
    (relu2_1): ReLU(inplace)
  )
  (feature_2): Sequential(
    (conv2_2): Conv2d(128, 128, kernel_size=(3, 3), stride=(1, 1), padding=(1, 1))
    (relu2_2): ReLU(inplace)
    (pool2): MaxPool2d(kernel_size=(2, 2), stride=(2, 2), dilation=(1, 1), ceil_mode=False)
    (conv3_1): Conv2d(128, 256, kernel_size=(3, 3), stride=(1, 1), padding=(1, 1))
    (relu3_1): ReLU(inplace)
    (conv3_2): Conv2d(256, 256, kernel_size=(3, 3), stride=(1, 1), padding=(1, 1))
    (relu3_2): ReLU(inplace)
    (conv3_3): Conv2d(256, 256, kernel_size=(3, 3), stride=(1, 1), padding=(1, 1))
    (relu3_3): ReLU(inplace)
    (pool3): MaxPool2d(kernel_size=(2, 2), stride=(2, 2), dilation=(1, 1), ceil_mode=False)
    (conv4_1): Conv2d(256, 512, kernel_size=(3, 3), stride=(1, 1), padding=(1, 1))
    (relu4_1): ReLU(inplace)
    (conv4_2): Conv2d(512, 512, kernel_size=(3, 3), stride=(1, 1), padding=(1, 1))
    (relu4_2): ReLU(inplace)
    (conv4_3): Conv2d(512, 512, kernel_size=(3, 3), stride=(1, 1), padding=(1, 1))
    (relu4_3): ReLU(inplace)
    (pool4): MaxPool2d(kernel_size=(2, 2), stride=(2, 2), dilation=(1, 1), ceil_mode=False)
    (conv5_1): Conv2d(512, 512, kernel_size=(3, 3), stride=(1, 1), padding=(1, 1))
    (relu5_1): ReLU(inplace)
    (conv5_2): Conv2d(512, 512, kernel_size=(3, 3), stride=(1, 1), padding=(1, 1))
    (relu5_2): ReLU(inplace)
    (conv5_3): Conv2d(512, 512, kernel_size=(3, 3), stride=(1, 1), padding=(1, 1))
    (relu5_3): ReLU(inplace)
    (pool5): MaxPool2d(kernel_size=(2, 2), stride=(2, 2), dilation=(1, 1), ceil_mode=False)
  )
  (classifier): Sequential(
    (fc6): Linear(in_features=25088, out_features=4096, bias=True)
    (relu6): ReLU(inplace)
    (dropout6): Dropout(p=0.5)
    (fc7): Linear(in_features=4096, out_features=4096, bias=True)
    (relu7): ReLU(inplace)
    (dropout7): Dropout(p=0.5)
    (fc8): Linear(in_features=4096, out_features=1000, bias=True)
  )
  (CS): MyCS(
    (conv): Conv2d(128, 128, kernel_size=(56, 56), stride=(1, 1))
    (map): MaxPool2d(kernel_size=(2, 2), stride=(2, 2), dilation=(1, 1), ceil_mode=False)
    (sigmoid): Sigmoid()
  )
)
model setup success!

[Phase 3] : Model fine tune
| Learning Rate = 0.001000
first 5 values: [0.814029, 0.851212, 0.319091, 0.937956, 0.642519]
Epoch[0]: [0/5005]	scale_factor: 0.1000	reg_lambda: 10.0000	Time 35.289 (35.289)	Prec@1 73.438 (73.438)	Prec@5 92.578 (92.578)
…
