Namespace(batch_size=256, data_base='/data/zhangcl/ImageNet', dist_backend='gloo', dist_url='tcp://224.66.41.62:23456', epochs=30, evaluate=False, gpu_id='0,1,2,3', load_from_lmdb=True, lr=0.001, momentum=0.9, pretrained=False, print_freq=10, resume='', start_epoch=0, weight_decay=0.0001, workers=8, world_size=1)
vgg16_test(
  (feature_1): Sequential(
    (conv1_1): Conv2d(3, 27, kernel_size=(3, 3), stride=(1, 1), padding=(1, 1))
    (relu1_1): ReLU(inplace)
    (conv1_2): Conv2d(27, 28, kernel_size=(3, 3), stride=(1, 1), padding=(1, 1))
    (relu1_2): ReLU(inplace)
    (pool1): MaxPool2d(kernel_size=(2, 2), stride=(2, 2), dilation=(1, 1), ceil_mode=False)
    (conv2_1): Conv2d(28, 56, kernel_size=(3, 3), stride=(1, 1), padding=(1, 1))
    (relu2_1): ReLU(inplace)
    (conv2_2): Conv2d(56, 57, kernel_size=(3, 3), stride=(1, 1), padding=(1, 1))
    (relu2_2): ReLU(inplace)
    (pool2): MaxPool2d(kernel_size=(2, 2), stride=(2, 2), dilation=(1, 1), ceil_mode=False)
    (conv3_1): Conv2d(57, 114, kernel_size=(3, 3), stride=(1, 1), padding=(1, 1))
    (relu3_1): ReLU(inplace)
    (conv3_2): Conv2d(114, 116, kernel_size=(3, 3), stride=(1, 1), padding=(1, 1))
    (relu3_2): ReLU(inplace)
    (conv3_3): Conv2d(116, 120, kernel_size=(3, 3), stride=(1, 1), padding=(1, 1))
    (relu3_3): ReLU(inplace)
    (pool3): MaxPool2d(kernel_size=(2, 2), stride=(2, 2), dilation=(1, 1), ceil_mode=False)
    (conv4_1): Conv2d(120, 237, kernel_size=(3, 3), stride=(1, 1), padding=(1, 1))
    (relu4_1): ReLU(inplace)
    (conv4_2): Conv2d(237, 239, kernel_size=(3, 3), stride=(1, 1), padding=(1, 1))
    (relu4_2): ReLU(inplace)
    (conv4_3): Conv2d(239, 236, kernel_size=(3, 3), stride=(1, 1), padding=(1, 1))
    (relu4_3): ReLU(inplace)
    (pool4): MaxPool2d(kernel_size=(2, 2), stride=(2, 2), dilation=(1, 1), ceil_mode=False)
    (conv5_1): Conv2d(236, 512, kernel_size=(3, 3), stride=(1, 1), padding=(1, 1))
    (relu5_1): ReLU(inplace)
    (conv5_2): Conv2d(512, 512, kernel_size=(3, 3), stride=(1, 1), padding=(1, 1))
    (relu5_2): ReLU(inplace)
    (conv5_3): Conv2d(512, 512, kernel_size=(3, 3), stride=(1, 1), padding=(1, 1))
    (relu5_3): ReLU(inplace)
    (pool5): MaxPool2d(kernel_size=(2, 2), stride=(2, 2), dilation=(1, 1), ceil_mode=False)
  )
  (classifier): Sequential(
    (fc6): Linear(in_features=25088, out_features=4096, bias=True)
    (relu6): ReLU(inplace)
    (dropout6): Dropout(p=0.5)
    (fc7): Linear(in_features=4096, out_features=4096, bias=True)
    (relu7): ReLU(inplace)
    (dropout7): Dropout(p=0.5)
    (fc8): Linear(in_features=4096, out_features=1000, bias=True)
  )
)
train_loader_success!
Epoch: [0][0/5005]	Time 28.949 (28.949)	Data 6.618 (6.618)	Loss 1.0808 (1.0808)	Prec@1 69.141 (69.141)	Prec@5 91.406 (91.406)
Epoch: [0][10/5005]	Time 0.512 (3.074)	Data 0.000 (0.604)	Loss 1.2018 (1.0912)	Prec@1 69.141 (70.526)	Prec@5 91.797 (91.051)
Epoch: [0][20/5005]	Time 0.511 (1.853)	Data 0.001 (0.317)	Loss 0.9879 (1.0807)	Prec@1 73.047 (70.815)	Prec@5 93.359 (91.109)
…
