Namespace(batch_size=256, data_base='/data/zhangcl/ImageNet', dist_backend='gloo', dist_url='tcp://224.66.41.62:23456', epochs=30, evaluate=False, gpu_id='4,5,6,7', load_from_lmdb=True, lr=0.001, momentum=0.9, pretrained=False, print_freq=10, resume='', start_epoch=0, weight_decay=0.0001, workers=8, world_size=1)
ResNet_test(
  (conv1): Conv2d(3, 64, kernel_size=(7, 7), stride=(2, 2), padding=(3, 3), bias=False)
  (bn1): BatchNorm2d(64, eps=1e-05, momentum=0.1, affine=True)
  (relu): ReLU(inplace)
  (maxpool): MaxPool2d(kernel_size=(3, 3), stride=(2, 2), padding=(1, 1), dilation=(1, 1), ceil_mode=False)
  (layer1): Sequential(
    (0): Bottleneck(
      (conv1): Conv2d(64, 20, kernel_size=(1, 1), stride=(1, 1), bias=False)
      (bn1): BatchNorm2d(20, eps=1e-05, momentum=0.1, affine=True)
      (conv2): Conv2d(20, 20, kernel_size=(3, 3), stride=(1, 1), padding=(1, 1), bias=False)
      (bn2): BatchNorm2d(20, eps=1e-05, momentum=0.1, affine=True)
      (conv3): Conv2d(20, 256, kernel_size=(1, 1), stride=(1, 1), bias=False)
      (bn3): BatchNorm2d(256, eps=1e-05, momentum=0.1, affine=True)
      (relu): ReLU(inplace)
      (downsample): Sequential(
        (0): Conv2d(64, 256, kernel_size=(1, 1), stride=(1, 1), bias=False)
        (1): BatchNorm2d(256, eps=1e-05, momentum=0.1, affine=True)
      )
    )
    (1): Bottleneck(
      (conv1): Conv2d(256, 19, kernel_size=(1, 1), stride=(1, 1), bias=False)
      (bn1): BatchNorm2d(19, eps=1e-05, momentum=0.1, affine=True)
      (conv2): Conv2d(19, 20, kernel_size=(3, 3), stride=(1, 1), padding=(1, 1), bias=False)
      (bn2): BatchNorm2d(20, eps=1e-05, momentum=0.1, affine=True)
      (conv3): Conv2d(20, 256, kernel_size=(1, 1), stride=(1, 1), bias=False)
      (bn3): BatchNorm2d(256, eps=1e-05, momentum=0.1, affine=True)
      (relu): ReLU(inplace)
    )
    (2): Bottleneck(
      (conv1): Conv2d(256, 19, kernel_size=(1, 1), stride=(1, 1), bias=False)
      (bn1): BatchNorm2d(19, eps=1e-05, momentum=0.1, affine=True)
      (conv2): Conv2d(19, 20, kernel_size=(3, 3), stride=(1, 1), padding=(1, 1), bias=False)
      (bn2): BatchNorm2d(20, eps=1e-05, momentum=0.1, affine=True)
      (conv3): Conv2d(20, 256, kernel_size=(1, 1), stride=(1, 1), bias=False)
      (bn3): BatchNorm2d(256, eps=1e-05, momentum=0.1, affine=True)
      (relu): ReLU(inplace)
    )
  )
  (layer2): Sequential(
    (0): Bottleneck(
      (conv1): Conv2d(256, 40, kernel_size=(1, 1), stride=(1, 1), bias=False)
      (bn1): BatchNorm2d(40, eps=1e-05, momentum=0.1, affine=True)
      (conv2): Conv2d(40, 41, kernel_size=(3, 3), stride=(2, 2), padding=(1, 1), bias=False)
      (bn2): BatchNorm2d(41, eps=1e-05, momentum=0.1, affine=True)
      (conv3): Conv2d(41, 512, kernel_size=(1, 1), stride=(1, 1), bias=False)
      (bn3): BatchNorm2d(512, eps=1e-05, momentum=0.1, affine=True)
      (relu): ReLU(inplace)
      (downsample): Sequential(
        (0): Conv2d(256, 512, kernel_size=(1, 1), stride=(2, 2), bias=False)
        (1): BatchNorm2d(512, eps=1e-05, momentum=0.1, affine=True)
      )
    )
    (1): Bottleneck(
      (conv1): Conv2d(512, 39, kernel_size=(1, 1), stride=(1, 1), bias=False)
      (bn1): BatchNorm2d(39, eps=1e-05, momentum=0.1, affine=True)
      (conv2): Conv2d(39, 39, kernel_size=(3, 3), stride=(1, 1), padding=(1, 1), bias=False)
      (bn2): BatchNorm2d(39, eps=1e-05, momentum=0.1, affine=True)
      (conv3): Conv2d(39, 512, kernel_size=(1, 1), stride=(1, 1), bias=False)
      (bn3): BatchNorm2d(512, eps=1e-05, momentum=0.1, affine=True)
      (relu): ReLU(inplace)
    )
    (2): Bottleneck(
      (conv1): Conv2d(512, 40, kernel_size=(1, 1), stride=(1, 1), bias=False)
      (bn1): BatchNorm2d(40, eps=1e-05, momentum=0.1, affine=True)
      (conv2): Conv2d(40, 39, kernel_size=(3, 3), stride=(1, 1), padding=(1, 1), bias=False)
      (bn2): BatchNorm2d(39, eps=1e-05, momentum=0.1, affine=True)
      (conv3): Conv2d(39, 512, kernel_size=(1, 1), stride=(1, 1), bias=False)
      (bn3): BatchNorm2d(512, eps=1e-05, momentum=0.1, affine=True)
      (relu): ReLU(inplace)
    )
    (3): Bottleneck(
      (conv1): Conv2d(512, 39, kernel_size=(1, 1), stride=(1, 1), bias=False)
      (bn1): BatchNorm2d(39, eps=1e-05, momentum=0.1, affine=True)
      (conv2): Conv2d(39, 40, kernel_size=(3, 3), stride=(1, 1), padding=(1, 1), bias=False)
      (bn2): BatchNorm2d(40, eps=1e-05, momentum=0.1, affine=True)
      (conv3): Conv2d(40, 512, kernel_size=(1, 1), stride=(1, 1), bias=False)
      (bn3): BatchNorm2d(512, eps=1e-05, momentum=0.1, affine=True)
      (relu): ReLU(inplace)
    )
  )
  (layer3): Sequential(
    (0): Bottleneck(
      (conv1): Conv2d(512, 83, kernel_size=(1, 1), stride=(1, 1), bias=False)
      (bn1): BatchNorm2d(83, eps=1e-05, momentum=0.1, affine=True)
      (conv2): Conv2d(83, 83, kernel_size=(3, 3), stride=(2, 2), padding=(1, 1), bias=False)
      (bn2): BatchNorm2d(83, eps=1e-05, momentum=0.1, affine=True)
      (conv3): Conv2d(83, 1024, kernel_size=(1, 1), stride=(1, 1), bias=False)
      (bn3): BatchNorm2d(1024, eps=1e-05, momentum=0.1, affine=True)
      (relu): ReLU(inplace)
      (downsample): Sequential(
        (0): Conv2d(512, 1024, kernel_size=(1, 1), stride=(2, 2), bias=False)
        (1): BatchNorm2d(1024, eps=1e-05, momentum=0.1, affine=True)
      )
    )
    (1): Bottleneck(
      (conv1): Conv2d(1024, 80, kernel_size=(1, 1), stride=(1, 1), bias=False)
      (bn1): BatchNorm2d(80, eps=1e-05, momentum=0.1, affine=True)
      (conv2): Conv2d(80, 81, kernel_size=(3, 3), stride=(1, 1), padding=(1, 1), bias=False)
      (bn2): BatchNorm2d(81, eps=1e-05, momentum=0.1, affine=True)
      (conv3): Conv2d(81, 1024, kernel_size=(1, 1), stride=(1, 1), bias=False)
      (bn3): BatchNorm2d(1024, eps=1e-05, momentum=0.1, affine=True)
      (relu): ReLU(inplace)
    )
    (2): Bottleneck(
      (conv1): Conv2d(1024, 81, kernel_size=(1, 1), stride=(1, 1), bias=False)
      (bn1): BatchNorm2d(81, eps=1e-05, momentum=0.1, affine=True)
      (conv2): Conv2d(81, 81, kernel_size=(3, 3), stride=(1, 1), padding=(1, 1), bias=False)
      (bn2): BatchNorm2d(81, eps=1e-05, momentum=0.1, affine=True)
      (conv3): Conv2d(81, 1024, kernel_size=(1, 1), stride=(1, 1), bias=False)
      (bn3): BatchNorm2d(1024, eps=1e-05, momentum=0.1, affine=True)
      (relu): ReLU(inplace)
    )
    (3): Bottleneck(
      (conv1): Conv2d(1024, 80, kernel_size=(1, 1), stride=(1, 1), bias=False)
      (bn1): BatchNorm2d(80, eps=1e-05, momentum=0.1, affine=True)
      (conv2): Conv2d(80, 81, kernel_size=(3, 3), stride=(1, 1), padding=(1, 1), bias=False)
      (bn2): BatchNorm2d(81, eps=1e-05, momentum=0.1, affine=True)
      (conv3): Conv2d(81, 1024, kernel_size=(1, 1), stride=(1, 1), bias=False)
      (bn3): BatchNorm2d(1024, eps=1e-05, momentum=0.1, affine=True)
      (relu): ReLU(inplace)
    )
    (4): Bottleneck(
      (conv1): Conv2d(1024, 80, kernel_size=(1, 1), stride=(1, 1), bias=False)
      (bn1): BatchNorm2d(80, eps=1e-05, momentum=0.1, affine=True)
      (conv2): Conv2d(80, 80, kernel_size=(3, 3), stride=(1, 1), padding=(1, 1), bias=False)
      (bn2): BatchNorm2d(80, eps=1e-05, momentum=0.1, affine=True)
      (conv3): Conv2d(80, 1024, kernel_size=(1, 1), stride=(1, 1), bias=False)
      (bn3): BatchNorm2d(1024, eps=1e-05, momentum=0.1, affine=True)
      (relu): ReLU(inplace)
    )
    (5): Bottleneck(
      (conv1): Conv2d(1024, 81, kernel_size=(1, 1), stride=(1, 1), bias=False)
      (bn1): BatchNorm2d(81, eps=1e-05, momentum=0.1, affine=True)
      (conv2): Conv2d(81, 80, kernel_size=(3, 3), stride=(1, 1), padding=(1, 1), bias=False)
      (bn2): BatchNorm2d(80, eps=1e-05, momentum=0.1, affine=True)
      (conv3): Conv2d(80, 1024, kernel_size=(1, 1), stride=(1, 1), bias=False)
      (bn3): BatchNorm2d(1024, eps=1e-05, momentum=0.1, affine=True)
      (relu): ReLU(inplace)
    )
  )
  (layer4): Sequential(
    (0): Bottleneck(
      (conv1): Conv2d(1024, 171, kernel_size=(1, 1), stride=(1, 1), bias=False)
      (bn1): BatchNorm2d(171, eps=1e-05, momentum=0.1, affine=True)
      (conv2): Conv2d(171, 169, kernel_size=(3, 3), stride=(2, 2), padding=(1, 1), bias=False)
      (bn2): BatchNorm2d(169, eps=1e-05, momentum=0.1, affine=True)
      (conv3): Conv2d(169, 2048, kernel_size=(1, 1), stride=(1, 1), bias=False)
      (bn3): BatchNorm2d(2048, eps=1e-05, momentum=0.1, affine=True)
      (relu): ReLU(inplace)
      (downsample): Sequential(
        (0): Conv2d(1024, 2048, kernel_size=(1, 1), stride=(2, 2), bias=False)
        (1): BatchNorm2d(2048, eps=1e-05, momentum=0.1, affine=True)
      )
    )
    (1): Bottleneck(
      (conv1): Conv2d(2048, 168, kernel_size=(1, 1), stride=(1, 1), bias=False)
      (bn1): BatchNorm2d(168, eps=1e-05, momentum=0.1, affine=True)
      (conv2): Conv2d(168, 168, kernel_size=(3, 3), stride=(1, 1), padding=(1, 1), bias=False)
      (bn2): BatchNorm2d(168, eps=1e-05, momentum=0.1, affine=True)
      (conv3): Conv2d(168, 2048, kernel_size=(1, 1), stride=(1, 1), bias=False)
      (bn3): BatchNorm2d(2048, eps=1e-05, momentum=0.1, affine=True)
      (relu): ReLU(inplace)
    )
    (2): Bottleneck(
      (conv1): Conv2d(2048, 512, kernel_size=(1, 1), stride=(1, 1), bias=False)
      (bn1): BatchNorm2d(512, eps=1e-05, momentum=0.1, affine=True)
      (conv2): Conv2d(512, 512, kernel_size=(3, 3), stride=(1, 1), padding=(1, 1), bias=False)
      (bn2): BatchNorm2d(512, eps=1e-05, momentum=0.1, affine=True)
      (conv3): Conv2d(512, 2048, kernel_size=(1, 1), stride=(1, 1), bias=False)
      (bn3): BatchNorm2d(2048, eps=1e-05, momentum=0.1, affine=True)
      (relu): ReLU(inplace)
    )
  )
  (avgpool): AvgPool2d(kernel_size=7, stride=1, padding=0, ceil_mode=False, count_include_pad=True)
  (fc): Linear(in_features=2048, out_features=1000, bias=True)
)
train_loader_success!
| Learning Rate = 0.001000
Epoch: [0][0/5005]	Time 36.238 (36.238)	Data 9.463 (9.463)	Loss 0.9740 (0.9740)	Prec@1 79.688 (79.688)	Prec@5 93.359 (93.359)
Epoch: [0][10/5005]	Time 0.441 (3.705)	Data 0.001 (0.862)	Loss 1.0011 (0.9134)	Prec@1 73.438 (77.486)	Prec@5 92.188 (93.750)
Epoch: [0][20/5005]	Time 0.454 (2.154)	Data 0.001 (0.452)	Loss 1.1351 (0.9493)	Prec@1 75.000 (76.656)	Prec@5 90.625 (93.080)
…
